…
I0204 16:15:24.137141  8495 solver.cpp:86] Creating training net from train_net file: fcn_train.prototxt
I0204 16:15:24.137894  8495 net.cpp:50] Initializing net from parameters: 
name: "FCN"
force_backward: true
state {
  phase: TRAIN
}
layer {
  name: "data"
  type: "Data"
  top: "data"
  transform_param {
    mirror: false
    crop_size: 0
    mean_value: 77
  }
  data_param {
    source: "train_images_lmdb/"
    batch_size: 1
    backend: LMDB
  }
}
layer {
  name: "label"
  type: "Data"
  top: "label"
  data_param {
    source: "train_labels_lmdb/"
    batch_size: 1
    backend: LMDB
  }
}
layer {
  name: "conv1"
  type: "Convolution"
  bottom: "data"
  top: "conv1"
  param {
    lr_mult: 1
    decay_mult: 1
  }
  param {
    lr_mult: 2
    decay_mult: 0
  }
  convolution_param {
    num_output: 100
    pad: 50
    kernel_size: 5
    group: 1
    stride: 2
    weight_filler {
      type: "gaussian"
      mean: 0
      std: 0.01
    }
    bias_filler {
      type: "constant"
      value: 0.1
    }
  }
}
layer {
  name: "relu1"
  type: "ReLU"
  bottom: "conv1"
  top: "conv1"
}
layer {
  name: "pool1"
  type: "Pooling"
  bottom: "conv1"
  top: "pool1"
  pooling_param {
    pool: MAX
    kernel_size: 2
    stride: 2
  }
}
layer {
  name: "conv2"
  type: "Convolution"
  bottom: "pool1"
  top: "conv2"
  param {
    lr_mult: 1
    decay_mult: 1
  }
  param {
    lr_mult: 2
    decay_mult: 0
  }
  convolution_param {
    num_output: 200
    pad: 0
    kernel_size: 5
    group: 1
    stride: 2
    weight_filler {
      type: "gaussian"
      mean: 0
      std: 0.01
    }
    bias_filler {
      type: "constant"
      value: 0.1
    }
  }
}
layer {
  name: "relu2"
  type: "ReLU"
  bottom: "conv2"
  top: "conv2"
}
layer {
  name: "pool2"
  type: "Pooling"
  bottom: "conv2"
  top: "pool2"
  pooling_param {
    pool: MAX
    kernel_size: 2
    stride: 2
  }
}
layer {
  name: "conv3"
  type: "Convolution"
  bottom: "pool2"
  top: "conv3"
  param {
    lr_mult: 1
    decay_mult: 1
  }
  param {
    lr_mult: 2
    decay_mult: 0
  }
  convolution_param {
    num_output: 300
    pad: 0
    kernel_size: 3
    group: 1
    stride: 1
    weight_filler {
      type: "gaussian"
      mean: 0
      std: 0.01
    }
    bias_filler {
      type: "constant"
      value: 0.1
    }
  }
}
layer {
  name: "relu3"
  type: "ReLU"
  bottom: "conv3"
  top: "conv3"
}
layer {
  name: "conv4"
  type: "Convolution"
  bottom: "conv3"
  top: "conv4"
  param {
    lr_mult: 1
    decay_mult: 1
  }
  param {
    lr_mult: 2
    decay_mult: 0
  }
  convolution_param {
    num_output: 300
    pad: 0
    kernel_size: 3
    group: 1
    stride: 1
    weight_filler {
      type: "gaussian"
      mean: 0
      std: 0.01
    }
    bias_filler {
      type: "constant"
      value: 0.1
    }
  }
}
layer {
  name: "relu4"
  type: "ReLU"
  bottom: "conv4"
  top: "conv4"
}
layer {
  name: "drop"
  type: "Dropout"
  bottom: "conv4"
  top: "conv4"
  dropout_param {
    dropout_ratio: 0.1
  }
}
layer {
  name: "score_classes"
  type: "Convolution"
  bottom: "conv4"
  top: "score_classes"
  param {
    lr_mult: 1
    decay_mult: 1
  }
  param {
    lr_mult: 2
    decay_mult: 0
  }
  convolution_param {
    num_output: 2
    pad: 0
    kernel_size: 1
    group: 1
    stride: 1
    weight_filler {
      type: "gaussian"
      mean: 0
      std: 0.01
    }
    bias_filler {
      type: "constant"
      value: 0.1
    }
  }
}
layer {
  name: "upscore"
  type: "Deconvolution"
  bottom: "score_classes"
  top: "upscore"
  param {
    lr_mult: 1
    decay_mult: 1
  }
  param {
    lr_mult: 2
    decay_mult: 0
  }
  convolution_param {
    num_output: 2
    bias_term: true
    pad: 8
    kernel_size: 31
    stride: 16
    weight_filler {
      type: "bilinear"
    }
    bias_filler {
      type: "constant"
      value: 0.1
    }
  }
}
layer {
  name: "score"
  type: "Crop"
  bottom: "upscore"
  bottom: "data"
  top: "score"
}
layer {
  name: "loss"
  type: "SoftmaxWithLoss"
  bottom: "score"
  bottom: "label"
  top: "loss"
  loss_param {
    normalize: true
  }
}
I0204 16:15:24.137998  8495 layer_factory.hpp:76] Creating layer data
I0204 16:15:24.139379  8495 net.cpp:111] Creating Layer data
I0204 16:15:24.139389  8495 net.cpp:434] data -> data
I0204 16:15:24.141121  8500 db_lmdb.cpp:22] Opened lmdb train_images_lmdb/
I0204 16:15:24.145236  8495 data_layer.cpp:44] output data size: 1,1,256,256
I0204 16:15:24.166388  8495 net.cpp:156] Setting up data
I0204 16:15:24.166420  8495 net.cpp:164] Top shape: 1 1 256 256 (65536)
I0204 16:15:24.166430  8495 layer_factory.hpp:76] Creating layer data_data_0_split
I0204 16:15:24.167007  8495 net.cpp:111] Creating Layer data_data_0_split
I0204 16:15:24.167016  8495 net.cpp:478] data_data_0_split <- data
I0204 16:15:24.167023  8495 net.cpp:434] data_data_0_split -> data_data_0_split_0
I0204 16:15:24.167032  8495 net.cpp:434] data_data_0_split -> data_data_0_split_1
I0204 16:15:24.167865  8495 net.cpp:156] Setting up data_data_0_split
I0204 16:15:24.167877  8495 net.cpp:164] Top shape: 1 1 256 256 (65536)
I0204 16:15:24.167882  8495 net.cpp:164] Top shape: 1 1 256 256 (65536)
I0204 16:15:24.167887  8495 layer_factory.hpp:76] Creating layer label
I0204 16:15:24.167934  8495 net.cpp:111] Creating Layer label
I0204 16:15:24.167942  8495 net.cpp:434] label -> label
I0204 16:15:24.169255  8502 db_lmdb.cpp:22] Opened lmdb train_labels_lmdb/
I0204 16:15:24.172713  8495 data_layer.cpp:44] output data size: 1,1,256,256
I0204 16:15:24.174108  8495 net.cpp:156] Setting up label
I0204 16:15:24.174125  8495 net.cpp:164] Top shape: 1 1 256 256 (65536)
I0204 16:15:24.174131  8495 layer_factory.hpp:76] Creating layer conv1
I0204 16:15:24.174144  8495 net.cpp:111] Creating Layer conv1
I0204 16:15:24.174149  8495 net.cpp:478] conv1 <- data_data_0_split_0
I0204 16:15:24.174161  8495 net.cpp:434] conv1 -> conv1
I0204 16:15:24.294744  8495 net.cpp:156] Setting up conv1
I0204 16:15:24.294791  8495 net.cpp:164] Top shape: 1 100 176 176 (3097600)
I0204 16:15:24.294811  8495 layer_factory.hpp:76] Creating layer relu1
I0204 16:15:24.294832  8495 net.cpp:111] Creating Layer relu1
I0204 16:15:24.294838  8495 net.cpp:478] relu1 <- conv1
I0204 16:15:24.294844  8495 net.cpp:420] relu1 -> conv1 (in-place)
I0204 16:15:24.295060  8495 net.cpp:156] Setting up relu1
I0204 16:15:24.295073  8495 net.cpp:164] Top shape: 1 100 176 176 (3097600)
I0204 16:15:24.295078  8495 layer_factory.hpp:76] Creating layer pool1
I0204 16:15:24.295086  8495 net.cpp:111] Creating Layer pool1
I0204 16:15:24.295091  8495 net.cpp:478] pool1 <- conv1
I0204 16:15:24.295096  8495 net.cpp:434] pool1 -> pool1
I0204 16:15:24.295238  8495 net.cpp:156] Setting up pool1
I0204 16:15:24.295248  8495 net.cpp:164] Top shape: 1 100 88 88 (774400)
I0204 16:15:24.295251  8495 layer_factory.hpp:76] Creating layer conv2
I0204 16:15:24.295260  8495 net.cpp:111] Creating Layer conv2
I0204 16:15:24.295264  8495 net.cpp:478] conv2 <- pool1
I0204 16:15:24.295270  8495 net.cpp:434] conv2 -> conv2
I0204 16:15:24.308805  8495 net.cpp:156] Setting up conv2
I0204 16:15:24.308846  8495 net.cpp:164] Top shape: 1 200 42 42 (352800)
I0204 16:15:24.308861  8495 layer_factory.hpp:76] Creating layer relu2
I0204 16:15:24.308871  8495 net.cpp:111] Creating Layer relu2
I0204 16:15:24.308874  8495 net.cpp:478] relu2 <- conv2
I0204 16:15:24.308889  8495 net.cpp:420] relu2 -> conv2 (in-place)
I0204 16:15:24.309010  8495 net.cpp:156] Setting up relu2
I0204 16:15:24.309017  8495 net.cpp:164] Top shape: 1 200 42 42 (352800)
I0204 16:15:24.309021  8495 layer_factory.hpp:76] Creating layer pool2
I0204 16:15:24.309029  8495 net.cpp:111] Creating Layer pool2
I0204 16:15:24.309033  8495 net.cpp:478] pool2 <- conv2
I0204 16:15:24.309044  8495 net.cpp:434] pool2 -> pool2
I0204 16:15:24.309259  8495 net.cpp:156] Setting up pool2
I0204 16:15:24.309269  8495 net.cpp:164] Top shape: 1 200 21 21 (88200)
I0204 16:15:24.309274  8495 layer_factory.hpp:76] Creating layer conv3
I0204 16:15:24.309281  8495 net.cpp:111] Creating Layer conv3
I0204 16:15:24.309285  8495 net.cpp:478] conv3 <- pool2
I0204 16:15:24.309291  8495 net.cpp:434] conv3 -> conv3
I0204 16:15:24.323770  8495 net.cpp:156] Setting up conv3
I0204 16:15:24.323810  8495 net.cpp:164] Top shape: 1 300 19 19 (108300)
I0204 16:15:24.323825  8495 layer_factory.hpp:76] Creating layer relu3
I0204 16:15:24.323834  8495 net.cpp:111] Creating Layer relu3
I0204 16:15:24.323839  8495 net.cpp:478] relu3 <- conv3
I0204 16:15:24.323854  8495 net.cpp:420] relu3 -> conv3 (in-place)
I0204 16:15:24.323995  8495 net.cpp:156] Setting up relu3
I0204 16:15:24.324004  8495 net.cpp:164] Top shape: 1 300 19 19 (108300)
I0204 16:15:24.324009  8495 layer_factory.hpp:76] Creating layer conv4
I0204 16:15:24.324026  8495 net.cpp:111] Creating Layer conv4
I0204 16:15:24.324030  8495 net.cpp:478] conv4 <- conv3
I0204 16:15:24.324035  8495 net.cpp:434] conv4 -> conv4
I0204 16:15:24.344835  8495 net.cpp:156] Setting up conv4
I0204 16:15:24.344873  8495 net.cpp:164] Top shape: 1 300 17 17 (86700)
I0204 16:15:24.344894  8495 layer_factory.hpp:76] Creating layer relu4
I0204 16:15:24.344904  8495 net.cpp:111] Creating Layer relu4
I0204 16:15:24.344909  8495 net.cpp:478] relu4 <- conv4
I0204 16:15:24.344915  8495 net.cpp:420] relu4 -> conv4 (in-place)
I0204 16:15:24.345152  8495 net.cpp:156] Setting up relu4
I0204 16:15:24.345163  8495 net.cpp:164] Top shape: 1 300 17 17 (86700)
I0204 16:15:24.345168  8495 layer_factory.hpp:76] Creating layer drop
I0204 16:15:24.345175  8495 net.cpp:111] Creating Layer drop
I0204 16:15:24.345178  8495 net.cpp:478] drop <- conv4
I0204 16:15:24.345183  8495 net.cpp:420] drop -> conv4 (in-place)
I0204 16:15:24.345192  8495 net.cpp:156] Setting up drop
I0204 16:15:24.345196  8495 net.cpp:164] Top shape: 1 300 17 17 (86700)
I0204 16:15:24.345199  8495 layer_factory.hpp:76] Creating layer score_classes
I0204 16:15:24.345207  8495 net.cpp:111] Creating Layer score_classes
I0204 16:15:24.345211  8495 net.cpp:478] score_classes <- conv4
I0204 16:15:24.345217  8495 net.cpp:434] score_classes -> score_classes
I0204 16:15:24.345787  8495 net.cpp:156] Setting up score_classes
I0204 16:15:24.345798  8495 net.cpp:164] Top shape: 1 2 17 17 (578)
I0204 16:15:24.345808  8495 layer_factory.hpp:76] Creating layer upscore
I0204 16:15:24.345815  8495 net.cpp:111] Creating Layer upscore
I0204 16:15:24.345818  8495 net.cpp:478] upscore <- score_classes
I0204 16:15:24.345824  8495 net.cpp:434] upscore -> upscore
I0204 16:15:24.346293  8495 net.cpp:156] Setting up upscore
I0204 16:15:24.346303  8495 net.cpp:164] Top shape: 1 2 271 271 (146882)
I0204 16:15:24.346310  8495 layer_factory.hpp:76] Creating layer score
I0204 16:15:24.346318  8495 net.cpp:111] Creating Layer score
I0204 16:15:24.346321  8495 net.cpp:478] score <- upscore
I0204 16:15:24.346325  8495 net.cpp:478] score <- data_data_0_split_1
I0204 16:15:24.346331  8495 net.cpp:434] score -> score
I0204 16:15:24.346365  8495 net.cpp:156] Setting up score
I0204 16:15:24.346370  8495 net.cpp:164] Top shape: 1 2 256 256 (131072)
I0204 16:15:24.346374  8495 layer_factory.hpp:76] Creating layer loss
I0204 16:15:24.346380  8495 net.cpp:111] Creating Layer loss
I0204 16:15:24.346385  8495 net.cpp:478] loss <- score
I0204 16:15:24.346388  8495 net.cpp:478] loss <- label
I0204 16:15:24.346392  8495 net.cpp:434] loss -> loss
I0204 16:15:24.346401  8495 layer_factory.hpp:76] Creating layer loss
I0204 16:15:24.346736  8495 net.cpp:156] Setting up loss
…
I0204 16:15:24.347486  8495 solver.cpp:186] Creating test net (#0) specified by test_net file: fcn_test.prototxt
I0204 16:15:24.347656  8495 net.cpp:50] Initializing net from parameters: 
name: "FCN"
force_backward: true
state {
  phase: TEST
}
layer {
  name: "data"
  type: "Data"
  top: "data"
  transform_param {
    mirror: false
    crop_size: 0
    mean_value: 77
  }
  data_param {
    source: "val_images_lmdb/"
    batch_size: 1
    backend: LMDB
  }
}
layer {
  name: "label"
  type: "Data"
  top: "label"
  data_param {
    source: "val_labels_lmdb/"
    batch_size: 1
    backend: LMDB
  }
}
layer {
  name: "conv1"
  type: "Convolution"
  bottom: "data"
  top: "conv1"
  param {
    lr_mult: 1
    decay_mult: 1
  }
  param {
    lr_mult: 2
    decay_mult: 0
  }
  convolution_param {
    num_output: 100
    pad: 50
    kernel_size: 5
    group: 1
    stride: 2
    weight_filler {
      type: "gaussian"
      mean: 0
      std: 0.01
    }
    bias_filler {
      type: "constant"
      value: 0.1
    }
  }
}
layer {
  name: "relu1"
  type: "ReLU"
  bottom: "conv1"
  top: "conv1"
}
layer {
  name: "pool1"
  type: "Pooling"
  bottom: "conv1"
  top: "pool1"
  pooling_param {
    pool: MAX
    kernel_size: 2
    stride: 2
  }
}
layer {
  name: "conv2"
  type: "Convolution"
  bottom: "pool1"
  top: "conv2"
  param {
    lr_mult: 1
    decay_mult: 1
  }
  param {
    lr_mult: 2
    decay_mult: 0
  }
  convolution_param {
    num_output: 200
    pad: 0
    kernel_size: 5
    group: 1
    stride: 2
    weight_filler {
      type: "gaussian"
      mean: 0
      std: 0.01
    }
    bias_filler {
      type: "constant"
      value: 0.1
    }
  }
}
layer {
  name: "relu2"
  type: "ReLU"
  bottom: "conv2"
  top: "conv2"
}
layer {
  name: "pool2"
  type: "Pooling"
  bottom: "conv2"
  top: "pool2"
  pooling_param {
    pool: MAX
    kernel_size: 2
    stride: 2
  }
}
layer {
  name: "conv3"
  type: "Convolution"
  bottom: "pool2"
  top: "conv3"
  param {
    lr_mult: 1
    decay_mult: 1
  }
  param {
    lr_mult: 2
    decay_mult: 0
  }
  convolution_param {
    num_output: 300
    pad: 0
    kernel_size: 3
    group: 1
    stride: 1
    weight_filler {
      type: "gaussian"
      mean: 0
      std: 0.01
    }
    bias_filler {
      type: "constant"
      value: 0.1
    }
  }
}
layer {
  name: "relu3"
  type: "ReLU"
  bottom: "conv3"
  top: "conv3"
}
layer {
  name: "conv4"
  type: "Convolution"
  bottom: "conv3"
  top: "conv4"
  param {
    lr_mult: 1
    decay_mult: 1
  }
  param {
    lr_mult: 2
    decay_mult: 0
  }
  convolution_param {
    num_output: 300
    pad: 0
    kernel_size: 3
    group: 1
    stride: 1
    weight_filler {
      type: "gaussian"
      mean: 0
      std: 0.01
    }
    bias_filler {
      type: "constant"
      value: 0.1
    }
  }
}
layer {
  name: "relu4"
  type: "ReLU"
  bottom: "conv4"
  top: "conv4"
}
layer {
  name: "drop"
  type: "Dropout"
  bottom: "conv4"
  top: "conv4"
  dropout_param {
    dropout_ratio: 0.1
  }
}
layer {
  name: "score_classes"
  type: "Convolution"
  bottom: "conv4"
  top: "score_classes"
  param {
    lr_mult: 1
    decay_mult: 1
  }
  param {
    lr_mult: 2
    decay_mult: 0
  }
  convolution_param {
    num_output: 2
    pad: 0
    kernel_size: 1
    group: 1
    stride: 1
    weight_filler {
      type: "gaussian"
      mean: 0
      std: 0.01
    }
    bias_filler {
      type: "constant"
      value: 0.1
    }
  }
}
layer {
  name: "upscore"
  type: "Deconvolution"
  bottom: "score_classes"
  top: "upscore"
  param {
    lr_mult: 1
    decay_mult: 1
  }
  param {
    lr_mult: 2
    decay_mult: 0
  }
  convolution_param {
    num_output: 2
    bias_term: true
    pad: 8
    kernel_size: 31
    stride: 16
    weight_filler {
      type: "bilinear"
    }
    bias_filler {
      type: "constant"
      value: 0.1
    }
  }
}
layer {
  name: "score"
  type: "Crop"
  bottom: "upscore"
  bottom: "data"
  top: "score"
}
layer {
  name: "loss"
  type: "SoftmaxWithLoss"
  bottom: "score"
  bottom: "label"
  top: "loss"
  loss_param {
    normalize: true
  }
}
layer {
  name: "accuracy"
  type: "Accuracy"
  bottom: "score"
  bottom: "label"
  top: "accuracy"
}
I0204 16:15:24.347744  8495 layer_factory.hpp:76] Creating layer data
I0204 16:15:24.347803  8495 net.cpp:111] Creating Layer data
I0204 16:15:24.347817  8495 net.cpp:434] data -> data
I0204 16:15:24.348853  8504 db_lmdb.cpp:22] Opened lmdb val_images_lmdb/
I0204 16:15:24.350664  8495 data_layer.cpp:44] output data size: 1,1,256,256
I0204 16:15:24.351296  8495 net.cpp:156] Setting up data
I0204 16:15:24.351310  8495 net.cpp:164] Top shape: 1 1 256 256 (65536)
I0204 16:15:24.351315  8495 layer_factory.hpp:76] Creating layer data_data_0_split
I0204 16:15:24.351325  8495 net.cpp:111] Creating Layer data_data_0_split
I0204 16:15:24.351330  8495 net.cpp:478] data_data_0_split <- data
I0204 16:15:24.351336  8495 net.cpp:434] data_data_0_split -> data_data_0_split_0
I0204 16:15:24.351343  8495 net.cpp:434] data_data_0_split -> data_data_0_split_1
I0204 16:15:24.351351  8495 net.cpp:156] Setting up data_data_0_split
I0204 16:15:24.351356  8495 net.cpp:164] Top shape: 1 1 256 256 (65536)
I0204 16:15:24.351361  8495 net.cpp:164] Top shape: 1 1 256 256 (65536)
I0204 16:15:24.351364  8495 layer_factory.hpp:76] Creating layer label
I0204 16:15:24.351395  8495 net.cpp:111] Creating Layer label
I0204 16:15:24.351402  8495 net.cpp:434] label -> label
I0204 16:15:24.353723  8506 db_lmdb.cpp:22] Opened lmdb val_labels_lmdb/
I0204 16:15:24.355005  8495 data_layer.cpp:44] output data size: 1,1,256,256
I0204 16:15:24.355556  8495 net.cpp:156] Setting up label
I0204 16:15:24.355571  8495 net.cpp:164] Top shape: 1 1 256 256 (65536)
I0204 16:15:24.355576  8495 layer_factory.hpp:76] Creating layer label_label_0_split
I0204 16:15:24.355586  8495 net.cpp:111] Creating Layer label_label_0_split
I0204 16:15:24.355590  8495 net.cpp:478] label_label_0_split <- label
I0204 16:15:24.355597  8495 net.cpp:434] label_label_0_split -> label_label_0_split_0
I0204 16:15:24.355607  8495 net.cpp:434] label_label_0_split -> label_label_0_split_1
I0204 16:15:24.355613  8495 net.cpp:156] Setting up label_label_0_split
I0204 16:15:24.355618  8495 net.cpp:164] Top shape: 1 1 256 256 (65536)
I0204 16:15:24.355623  8495 net.cpp:164] Top shape: 1 1 256 256 (65536)
I0204 16:15:24.355626  8495 layer_factory.hpp:76] Creating layer conv1
I0204 16:15:24.355635  8495 net.cpp:111] Creating Layer conv1
I0204 16:15:24.355639  8495 net.cpp:478] conv1 <- data_data_0_split_0
I0204 16:15:24.355644  8495 net.cpp:434] conv1 -> conv1
I0204 16:15:24.356755  8495 net.cpp:156] Setting up conv1
I0204 16:15:24.356767  8495 net.cpp:164] Top shape: 1 100 176 176 (3097600)
I0204 16:15:24.356777  8495 layer_factory.hpp:76] Creating layer relu1
I0204 16:15:24.356791  8495 net.cpp:111] Creating Layer relu1
I0204 16:15:24.356802  8495 net.cpp:478] relu1 <- conv1
I0204 16:15:24.356807  8495 net.cpp:420] relu1 -> conv1 (in-place)
I0204 16:15:24.356999  8495 net.cpp:156] Setting up relu1
I0204 16:15:24.357008  8495 net.cpp:164] Top shape: 1 100 176 176 (3097600)
I0204 16:15:24.357013  8495 layer_factory.hpp:76] Creating layer pool1
I0204 16:15:24.357019  8495 net.cpp:111] Creating Layer pool1
I0204 16:15:24.357023  8495 net.cpp:478] pool1 <- conv1
I0204 16:15:24.357029  8495 net.cpp:434] pool1 -> pool1
I0204 16:15:24.357267  8495 net.cpp:156] Setting up pool1
I0204 16:15:24.357277  8495 net.cpp:164] Top shape: 1 100 88 88 (774400)
I0204 16:15:24.357281  8495 layer_factory.hpp:76] Creating layer conv2
I0204 16:15:24.357290  8495 net.cpp:111] Creating Layer conv2
I0204 16:15:24.357293  8495 net.cpp:478] conv2 <- pool1
I0204 16:15:24.357302  8495 net.cpp:434] conv2 -> conv2
I0204 16:15:24.370693  8495 net.cpp:156] Setting up conv2
I0204 16:15:24.370733  8495 net.cpp:164] Top shape: 1 200 42 42 (352800)
I0204 16:15:24.370755  8495 layer_factory.hpp:76] Creating layer relu2
I0204 16:15:24.370766  8495 net.cpp:111] Creating Layer relu2
I0204 16:15:24.370770  8495 net.cpp:478] relu2 <- conv2
I0204 16:15:24.370785  8495 net.cpp:420] relu2 -> conv2 (in-place)
I0204 16:15:24.370919  8495 net.cpp:156] Setting up relu2
I0204 16:15:24.370926  8495 net.cpp:164] Top shape: 1 200 42 42 (352800)
I0204 16:15:24.370930  8495 layer_factory.hpp:76] Creating layer pool2
I0204 16:15:24.370937  8495 net.cpp:111] Creating Layer pool2
I0204 16:15:24.370941  8495 net.cpp:478] pool2 <- conv2
I0204 16:15:24.370946  8495 net.cpp:434] pool2 -> pool2
I0204 16:15:24.371156  8495 net.cpp:156] Setting up pool2
I0204 16:15:24.371166  8495 net.cpp:164] Top shape: 1 200 21 21 (88200)
I0204 16:15:24.371170  8495 layer_factory.hpp:76] Creating layer conv3
I0204 16:15:24.371178  8495 net.cpp:111] Creating Layer conv3
I0204 16:15:24.371181  8495 net.cpp:478] conv3 <- pool2
I0204 16:15:24.371187  8495 net.cpp:434] conv3 -> conv3
I0204 16:15:24.385274  8495 net.cpp:156] Setting up conv3
I0204 16:15:24.385311  8495 net.cpp:164] Top shape: 1 300 19 19 (108300)
I0204 16:15:24.385334  8495 layer_factory.hpp:76] Creating layer relu3
I0204 16:15:24.385344  8495 net.cpp:111] Creating Layer relu3
I0204 16:15:24.385349  8495 net.cpp:478] relu3 <- conv3
I0204 16:15:24.385363  8495 net.cpp:420] relu3 -> conv3 (in-place)
I0204 16:15:24.385498  8495 net.cpp:156] Setting up relu3
I0204 16:15:24.385527  8495 net.cpp:164] Top shape: 1 300 19 19 (108300)
I0204 16:15:24.385532  8495 layer_factory.hpp:76] Creating layer conv4
I0204 16:15:24.385550  8495 net.cpp:111] Creating Layer conv4
I0204 16:15:24.385553  8495 net.cpp:478] conv4 <- conv3
I0204 16:15:24.385560  8495 net.cpp:434] conv4 -> conv4
I0204 16:15:24.406388  8495 net.cpp:156] Setting up conv4
I0204 16:15:24.406420  8495 net.cpp:164] Top shape: 1 300 17 17 (86700)
I0204 16:15:24.406431  8495 layer_factory.hpp:76] Creating layer relu4
I0204 16:15:24.406441  8495 net.cpp:111] Creating Layer relu4
I0204 16:15:24.406446  8495 net.cpp:478] relu4 <- conv4
I0204 16:15:24.406451  8495 net.cpp:420] relu4 -> conv4 (in-place)
I0204 16:15:24.406743  8495 net.cpp:156] Setting up relu4
I0204 16:15:24.406754  8495 net.cpp:164] Top shape: 1 300 17 17 (86700)
I0204 16:15:24.406757  8495 layer_factory.hpp:76] Creating layer drop
I0204 16:15:24.406765  8495 net.cpp:111] Creating Layer drop
I0204 16:15:24.406769  8495 net.cpp:478] drop <- conv4
I0204 16:15:24.406774  8495 net.cpp:420] drop -> conv4 (in-place)
I0204 16:15:24.406781  8495 net.cpp:156] Setting up drop
I0204 16:15:24.406785  8495 net.cpp:164] Top shape: 1 300 17 17 (86700)
I0204 16:15:24.406790  8495 layer_factory.hpp:76] Creating layer score_classes
I0204 16:15:24.406796  8495 net.cpp:111] Creating Layer score_classes
I0204 16:15:24.406800  8495 net.cpp:478] score_classes <- conv4
I0204 16:15:24.406805  8495 net.cpp:434] score_classes -> score_classes
I0204 16:15:24.407488  8495 net.cpp:156] Setting up score_classes
I0204 16:15:24.407505  8495 net.cpp:164] Top shape: 1 2 17 17 (578)
I0204 16:15:24.407519  8495 layer_factory.hpp:76] Creating layer upscore
I0204 16:15:24.407531  8495 net.cpp:111] Creating Layer upscore
I0204 16:15:24.407534  8495 net.cpp:478] upscore <- score_classes
I0204 16:15:24.407539  8495 net.cpp:434] upscore -> upscore
I0204 16:15:24.407987  8495 net.cpp:156] Setting up upscore
I0204 16:15:24.407997  8495 net.cpp:164] Top shape: 1 2 271 271 (146882)
I0204 16:15:24.408004  8495 layer_factory.hpp:76] Creating layer score
I0204 16:15:24.408010  8495 net.cpp:111] Creating Layer score
I0204 16:15:24.408013  8495 net.cpp:478] score <- upscore
I0204 16:15:24.408018  8495 net.cpp:478] score <- data_data_0_split_1
I0204 16:15:24.408022  8495 net.cpp:434] score -> score
I0204 16:15:24.408047  8495 net.cpp:156] Setting up score
I0204 16:15:24.408051  8495 net.cpp:164] Top shape: 1 2 256 256 (131072)
I0204 16:15:24.408056  8495 layer_factory.hpp:76] Creating layer score_score_0_split
I0204 16:15:24.408061  8495 net.cpp:111] Creating Layer score_score_0_split
I0204 16:15:24.408063  8495 net.cpp:478] score_score_0_split <- score
I0204 16:15:24.408069  8495 net.cpp:434] score_score_0_split -> score_score_0_split_0
I0204 16:15:24.408076  8495 net.cpp:434] score_score_0_split -> score_score_0_split_1
I0204 16:15:24.408082  8495 net.cpp:156] Setting up score_score_0_split
I0204 16:15:24.408087  8495 net.cpp:164] Top shape: 1 2 256 256 (131072)
I0204 16:15:24.408092  8495 net.cpp:164] Top shape: 1 2 256 256 (131072)
I0204 16:15:24.408094  8495 layer_factory.hpp:76] Creating layer loss
I0204 16:15:24.408100  8495 net.cpp:111] Creating Layer loss
I0204 16:15:24.408103  8495 net.cpp:478] loss <- score_score_0_split_0
I0204 16:15:24.408107  8495 net.cpp:478] loss <- label_label_0_split_0
I0204 16:15:24.408113  8495 net.cpp:434] loss -> loss
I0204 16:15:24.408118  8495 layer_factory.hpp:76] Creating layer loss
…
